models/tiny_unet.pth (torch, 477717 bytes, 25 tensors)

encoder1.0.weight f4 [16, 3, 3, 3]
0	0xbd01c76e	-0.03168433
1	0xbd99086a	-0.07472308
2	0x3dabede0	0.083949804
3	0xbe46b9ac	-0.19406766
4	0xbe1990e5	-0.14996679
5	0xbd80a1d0	-0.06280863
6	0x3e1e544c	0.15461844
7	0x3c59d4c1	0.013295353
8	0x3e37187f	0.17880438
9	0x3d364902	0.04450322
10	0x3d42e4cc	0.04758148
11	0xbe260eb5	-0.16216548
12	0x3e0642a1	0.13111354
13	0xbe18ddce	-0.14928362
14	0x3d9ec406	0.07752232
15	0xbddc31a8	-0.10751659
16	0x3dc01003	0.09378054
17	0x3e3c7b95	0.18406518
18	0x3d678ff1	0.056533758
19	0x3ca9ff03	0.020751482
20	0xbde3fc43	-0.111320995
21	0x3c82c87e	0.015964743
22	0xbe313c6f	-0.1730821
23	0xbd52bf46	-0.051451944
24	0xbdd64429	-0.10462219
25	0xbe412708	-0.18862545
26	0x3cc905ec	0.024538957
27	0xbe4f1823	-0.20224051
28	0x3c552615	0.013009568
29	0x3d963a7a	0.07335372
30	0xbe1af809	-0.1513368
31	0x3cf6a69d	0.030108744
32	0xbe345c8e	-0.17613432
33	0x3da80e00	0.08205795
34	0xbe3d8e68	-0.18511355
35	0xbdb3769c	-0.08762857
36	0x3e2f1f80	0.1710186
37	0x3e2b7a16	0.16745791
38	0xbb93c9bb	-0.004510132
39	0xbde596ce	-0.11210404
40	0x3dfe74e9	0.124246426
41	0x3d948d36	0.07253496
42	0x3e0048ba	0.12527743
43	0xbe48de15	-0.19615968
44	0xbe0a690d	-0.13516636
45	0xbbe63bdd	-0.007026179
46	0x3daa14dc	0.0830476
47	0xbe367dd7	-0.17821442
48	0xbe111e8c	-0.14171809
49	0xbd546a73	-0.05185933
50	0xbdefa605	-0.117015876
51	0xbe1ab0e9	-0.15106548
52	0x3db7cec3	0.089749835
53	0xbd891712	-0.066938534
54	0x3e423896	0.18966898
55	0x3e0fa9fc	0.14029688
56	0xbc9697bb	-0.018382898
57	0xbddbce98	-0.10732764
58	0x3e400e7d	0.18755527
59	0x3d95eadf	0.07320189
60	0x3e40ed0a	0.18840423
61	0x3e1b0f8f	0.15142654
62	0x3d6bf602	0.05760766
63	0xbd77fbcf	-0.060542878
64	0xbd6bd0e4	-0.05757226
65	0xbd4af19c	-0.049546823
66	0xbc702a8d	-0.014658582
67	0x3d4a2154	0.04934819
68	0x3c9fdd9f	0.019514857
69	0xbe33d18d	-0.17560406
70	0x3e499ee7	0.19689523
71	0xbda688bd	-0.081315495
72	0x3cd8884a	0.026432175
73	0x3dff2ca2	0.12459685
74	0xbe013363	-0.12617259
75	0xbd9a257e	-0.07526682
76	0xbe30e210	-0.17273736
77	0xbe155205	-0.14582069
78	0xbe121fcd	-0.14269944
79	0x3e3c021c	0.1836018
80	0xbe22af8f	-0.15887283
81	0x3dbf6b6d	0.09346662
82	0xbcfd169e	-0.030894574
83	0xbdec289b	-0.115311824
84	0xbe137a4f	-0.14402126
85	0xbe06092e	-0.1308944
86	0x3cae3226	0.021264147
87	0xbd96a27d	-0.07355211
88	0xbc973ff2	-0.018463109
89	0xbe0333cf	-0.12812732
90	0x3e1391d7	0.14411102
91	0x3d0ae48f	0.033909377
92	0xbd8cc0d8	-0.068727195
93	0x3db07afc	0.086172074
94	0xbdcb9e5b	-0.09942313
95	0x3dced2ac	0.10098776
96	0x3dafbf60	0.08581424
97	0xbca1ff1f	-0.019774972
98	0x3e532fa7	0.20623647
99	0xbe0d7afc	-0.13816446
100	0x3dffb77d	0.124861695
101	0x3e4af8cf	0.19821475
102	0x3c59b295	0.013287206
103	0x3d262736	0.04056474
104	0x3d211e77	0.039335694
105	0x3e0498f6	0.12948975
106	0x3ddf05b4	0.1088976
107	0xbd768844	-0.060188547
108	0x3e3060da	0.17224446
109	0x3de561d6	0.11200301
110	0x3e3b2b51	0.18278243
111	0xbd7feb7b	-0.06248043
112	0x3dcb6cd8	0.0993287
113	0x3be42df6	0.006963487
114	0x3d66f23e	0.056383364
115	0xbe0cdd0e	-0.137562
116	0xbe374090	-0.17895722
117	0x3e0c94ba	0.1372861
118	0x3e3b45ef	0.18288396
119	0x3e15fb45	0.14646633
120	0xbe346c5f	-0.17619465
121	0x3df8d83b	0.12150618
122	0xbdd5d001	-0.10440064
123	0xbd945bbb	-0.07244059
124	0xbb945468	-0.0045266636
125	0xbcbffbaf	-0.023435442
126	0x3db4476f	0.088026874
127	0x3d032bc7	0.03202417
128	0x3d5a0ae2	0.053233035
129	0x3c39461e	0.011308221
130	0x3d533823	0.051567208
131	0xbda586af	-0.080823295
132	0x3acdda08	0.0015705237
133	0x3da66f0f	0.081266515
134	0xbe1f5545	-0.15559871
135	0x3e28f48b	0.16499536
136	0x3c9c723a	0.019097436
137	0x3da8e8cf	0.0824753
138	0xbd4b7eaf	-0.04968136
139	0x3d8c24cb	0.06842955
140	0x3e05d3c0	0.13069057
141	0xbe034451	-0.1281903
142	0xbde4eb11	-0.11177648
143	0x3dc762c2	0.097356334
144	0x3e406b91	0.18791033
145	0x3e0f61e2	0.14002183
146	0xbd84847f	-0.06470584
147	0x3e05f412	0.13081387
148	0xbe2c44b3	-0.16823082
149	0x3b9210d2	0.0044575715
150	0x3cfca3e8	0.030839875
151	0xbd1eabcd	-0.03873806
152	0x3de98bc9	0.11403615
153	0x3d110b12	0.035410948
154	0x3d1c5704	0.038168922
155	0x3d723a03	0.059137356
156	0x3c949872	0.018139098
157	0x3d010b9b	0.03150521
158	0xbd0fb4bc	-0.03508447
159	0xbe1f53a5	-0.15559252
160	0xbd10762c	-0.035268947
161	0x3b32a74d	0.0027260364
162	0x3db77b8c	0.089591116
163	0xbe06eef6	-0.13177094
164	0x3cd794a1	0.026315989
165	0x3cf08090	0.029358178
166	0x3e40093c	0.18753523
167	0x3dcf8bd2	0.101340905
168	0x3e434566	0.19069442
169	0xbdfbbf41	-0.12292338
170	0x3d0b21a3	0.033967625
171	0x3c9eb8c9	0.019375222
172	0x3df41b5b	0.1191928
173	0xbe26a977	-0.16275583
174	0xbd4d4d35	-0.05012246
175	0xbdee60a7	-0.11639529
176	0x3d81d32e	0.063391075
177	0xbe05bdca	-0.1306068
178	0xbda3b3f1	-0.079933055
179	0xbc625706	-0.013814693
180	0xbdcab427	-0.098976426
181	0xbe0dc6f5	-0.13845427
182	0x3de4716b	0.11154445
183	0x3df2f862	0.118637815
184	0xbe128cfa	-0.14311591
185	0xbe1ef5ff	-0.15523528
186	0xbe11d165	-0.14240034
187	0xbdf7f20c	-0.12106714
188	0xbdafb496	-0.08579366
189	0xbda64120	-0.0811789
190	0x3e26cc03	0.16288762
191	0x3e09ceb7	0.13457762
192	0x3e30d695	0.17269357
193	0xbe1108da	-0.14163533
194	0xbd0b532f	-0.034014877
195	0xbe36795b	-0.17819731
196	0xbe2f74c8	-0.17134392
197	0xbd821bcf	-0.0635296
198	0xbe220cfc	-0.15825266
199	0xbbe97f82	-0.007125796
200	0xbdd106a9	-0.102063484
201	0xbe2d83c9	-0.16944803
202	0x3e3e83c0	0.18604946
203	0xbb830bfb	-0.003999231
204	0xbd26c154	-0.040711716
205	0x3e234580	0.15944481
206	0xbd110e18	-0.03541383
207	0x3c965177	0.018349392
208	0x3d3ddaed	0.046351362
209	0xbd8747d1	-0.06605495
210	0x3d82e4ef	0.06391322
211	0x3e429ac8	0.19004357
212	0xbe305db0	-0.17223239
213	0xbdd78d12	-0.10524954
214	0x3deffedb	0.11718532
215	0x3d2ef678	0.04271552
216	0x3d9d5652	0.0768248
217	0x3d82468b	0.06361111
218	0xbe2216ca	-0.15829006
219	0x3dbfe1ec	0.09369263
220	0x3db1710a	0.086641386
221	0xbd97138d	-0.07376776
222	0x3e4ea0c1	0.2017851
223	0x3d123c7d	0.035702217
224	0x3e49ca80	0.19706154
225	0xbdb7955b	-0.08964034
226	0xbdc4adad	-0.096034385
227	0x3e4aec88	0.19816792
228	0x3dc16a04	0.09444049
229	0x3a3f1eba	0.00072906504
230	0x3e1dc262	0.15406182
231	0xbe286dbe	-0.16448113
232	0x3db9c4ab	0.090707146
233	0x3e3bee43	0.18352608
234	0xbe2bbb61	-0.16770698
235	0x3d32efc7	0.0436857
236	0xbd700dae	-0.058606796
237	0x3deac34c	0.11463031
238	0xbdffcf1d	-0.124906756
239	0xbdd9745d	-0.10617898
240	0xbdcb4623	-0.09925487
241	0x3dc7d68e	0.0975772
242	0x3d94573c	0.07243201
243	0x3df589b5	0.11989156
244	0x3c98b100	0.018639088
245	0x3e4aad9f	0.19792794
246	0x3d969f39	0.07354588
247	0x3e00dc13	0.12583952
248	0x3e2eb35b	0.17060606
249	0x3ca7f02b	0.020500263
250	0xbcd9a12a	-0.026566107
251	0x3e0e2a5e	0.1388335
252	0x3e455355	0.1927007
253	0xbd2117c3	-0.0393293
254	0xbd9d41c1	-0.07678557
255	0xbd8e6191	-0.06952203

encoder1.0.bias f4 [16]
0	0xbbf08fce	-0.0073413616
1	0x3da42147	0.0801416
2	0xbdb6ad20	-0.0891974
3	0x3e095f92	0.13415363
4	0x3e0c3e5f	0.13695668
5	0x3cdaceda	0.026709963
6	0x3e0cf71c	0.1376614
7	0xbb811d8a	-0.003940289
8	0xbcf502dd	-0.029908592
9	0x3e208acc	0.15677947
10	0xbd2d33eb	-0.04228584
11	0xbde22afc	-0.11043355
12	0xbd5ea1f6	-0.054353677
13	0xbe32f064	-0.17474514
14	0xbdf169a9	-0.11787731
15	0xbe3f4452	-0.18678406

encoder1.2.weight f4 [16, 16, 3, 3]
0	0x3d15ee96	0.036604486
1	0x3d77e602	0.060522087
2	0xbce0bbdd	-0.02743333
3	0xbd81af37	-0.06332248
4	0x3ce6c745	0.028171191
5	0xbd2251e1	-0.039628867
6	0x3d8951a5	0.067050256
7	0x3d94f12c	0.072725624
8	0x3da391c8	0.0798679
9	0xbc7516ad	-0.01495902
10	0x3ae51160	0.0017476492
11	0xbd5d762d	-0.05406778
12	0xbd39bc7c	-0.04534577
13	0xbba5c429	-0.0050587845
14	0xbc93bf69	-0.018035607
15	0xbc8ccbbc	-0.017186992
16	0x3d9e193d	0.077196576
17	0xbacf1848	-0.0015800083
18	0xbcf40d27	-0.029791428
19	0x3d695d58	0.056973785
20	0x3d834ee4	0.064115316
21	0x3d872f42	0.066008106
22	0x3da8fead	0.082517006
23	0x3cae5518	0.02128081
24	0xbd3be3bd	-0.045871485
25	0xbcca429b	-0.024689963
26	0xbca37590	-0.01995352
27	0x3d60b43b	0.05485938
28	0xbc8dca4e	-0.01730838
29	0x3d8801af	0.06640946
30	0x3d983211	0.074314244
31	0x3c34e194	0.01104011
32	0xbce14bed	-0.027502025
33	0x3d8595aa	0.06522687
34	0x3d1a3d02	0.037655838
35	0xbd72a76c	-0.059241697
36	0xbd137603	-0.036001217
37	0xbb9b17f3	-0.0047330796
38	0x3bb7482d	0.005593321
39	0x3d657770	0.056022108
40	0x3d218f72	0.03944344
41	0x3cd4af64	0.025962539
42	0x3d97159a	0.07377167
43	0x3da8fd7d	0.08251474
44	0xbd862f5b	-0.06552001
45	0xbc5c2436	-0.013436368
46	0xbd7e33c4	-0.062061086
47	0x3cc63ef3	0.024199938
48	0x3d6e29e2	0.05814541
49	0x3d0f31d2	0.03495962
50	0x3c3e1e22	0.011603864
51	0x3db37df1	0.08764256
52	0x3d02eccc	0.03196411
53	0x3d3c07b8	0.0459058
54	0x3daaf392	0.083472386
55	0xbd82f5fd	-0.06394575
56	0x3c1e2135	0.009651472
57	0xbc41a539	-0.011819177
58	0xbd072bf5	-0.033000905
59	0x3d6b8ec4	0.0575092
60	0x3c9cc2ad	0.019135797
61	0x3d6acfb1	0.057326976
62	0x3b577c68	0.0032880548
63	0xbd50750a	-0.050892867
64	0x3db594a1	0.08866239
65	0x3d8f6689	0.07001979
66	0xbd838097	-0.06421011
67	0x3c334332	0.010941314
68	0x3800f965	3.0749845e-05
69	0x3dbdbbf6	0.09264366
70	0x3cb00beb	0.021490058
71	0x3d3457dc	0.0440291
72	0xbc894935	-0.01675854
73	0x3d83703d	0.06417892
74	0x3d2050c7	0.039139535
75	0x3d2f2492	0.042759486
76	0xbd37520e	-0.044755988
77	0xbcf78ca9	-0.03021844
78	0xbd517363	-0.051135432
79	0xbd03a279	-0.032137368
80	0x3d962a32	0.07332267
81	0xbcfdd97b	-0.030987492
82	0x3db6480f	0.08900463
83	0x3da1e0c3	0.07904198
84	0x3dbd2856	0.09236209
85	0xbd89d81c	-0.06730673
86	0xbd424878	-0.047432393
87	0xbceba7e3	-0.028766578
88	0x3dbe91e5	0.09305171
89	0xbc956093	-0.018234527
90	0x3d94080b	0.072280966
91	0x3d9c59c7	0.07634311
92	0x3d8a8338	0.06763309
93	0xba645bfe	-0.00087112177
94	0x3d0427e9	0.032264624
95	0xbd847e17	-0.06469362
96	0x3daeaa1d	0.0852854
97	0x3cf63700	0.030055523
98	0x3d1b5cfc	0.037930474
99	0x3d16bea5	0.036802907
100	0xbc19cfb7	-0.009387902
101	0x3ce51d65	0.027968118
102	0x3cf18a0b	0.02948477
103	0x3ce0c709	0.027438657
104	0x3d3020b5	0.04299994
105	0xbd4f281c	-0.05057536
106	0x3c2a5939	0.010397249
107	0x3d8f2e9c	0.06991312
108	0x3d2328b4	0.03983374
109	0xbd0fb511	-0.035084788
110	0xbd355bd0	-0.044277012
111	0xbcbc97ec	-0.02302166
112	0x3d083607	0.03325465
113	0x3c809a55	0.015698591
114	0xbca8f849	-0.020626204
115	0xbd175434	-0.036945537
116	0x3bc36231	0.005962633
117	0xbd231203	-0.0398121
118	0x3a9f4581	0.0012151451
119	0xbbd55c2b	-0.0065112314
120	0x3dc0594b	0.09392031
121	0x3d7a53ab	0.06111495
122	0x3d992049	0.07476861
123	0xbd13bcdf	-0.036068793
124	0x3cbe79a3	0.02325136
125	0x3c120774	0.00891291
126	0xbd43cdf3	-0.04780383
127	0xbd493d47	-0.049130704
128	0x3db1399d	0.08653567
129	0x3d3d6903	0.046242725
130	0xbd3a5c01	-0.045497898
131	0xbd212375	-0.039340455
132	0x3da00c70	0.07814872
133	0x3c45a689	0.012063631
134	0xbc7bfbe8	-0.015379883
135	0xbd208fe0	-0.03919971
136	0x3c004a48	0.00783021
137	0xbd7ce0c0	-0.061737776
138	0x3d319ce2	0.043362506
139	0x3d95b007	0.07308965
140	0x3c636d18	0.01388099
141	0x3c1720a8	0.009224094
142	0xbbf9b740	-0.007620722
143	0xbc964f40	-0.018348336
144	0xbd0a325c	-0.033739433
145	0x3c9fd770	0.019511908
146	0xbd3773fe	-0.044788353
147	0xbc8d2cab	-0.017233213
148	0xbc77cfd1	-0.015125231
149	0xbd9a7161	-0.075411566
150	0xbd0971f9	-0.03355596
151	0x3d9271da	0.07150622
152	0x3d2dba7b	0.04241417
153	0xbb8847c4	-0.0041589458
154	0x3c4f237e	0.012642739
155	0xbdb4de9b	-0.08831521
156	0xbdadb30a	-0.084814146
157	0x3d9021d8	0.07037705
158	0x3cf44ec9	0.029822724
159	0x3c737cbc	0.014861282
160	0x3d8915af	0.06693589
161	0xbd8ea994	-0.06965938
162	0xbd15625b	-0.036470752
163	0xbd3af131	-0.045640174
164	0xbd3c58d5	-0.045983154
165	0xbd3eadf4	-0.046552613
166	0xbcc54d09	-0.024084585
167	0x3d2f2943	0.04276396
168	0x3d2dd22b	0.04243676
169	0x3d848dfa	0.064723924
170	0x3bd4ecb6	0.0064979447
171	0xbda06ddd	-0.07833455
172	0xbd5e2956	-0.05423864
173	0xbd5ca6bf	-0.05386996
174	0xbdbd76cd	-0.09251175
175	0x3c6bf238	0.014401011
176	0x3d90667b	0.070507966
177	0xbd845442	-0.064613834
178	0xbd228be4	-0.03968419
179	0xbd6df1ad	-0.058091808
180	0xbd6df0d4	-0.058091
181	0xbdb83ff9	-0.08996577
182	0xbd0f19a9	-0.03493658
183	0x3d945064	0.07241896
184	0xbcdf0a7a	-0.027226675
185	0xbb81b02f	-0.0039577703
186	0xbc9e4de3	-0.019324249
187	0x3d87af2f	0.066252105
188	0xbc955a5c	-0.018231563
189	0x3bdefb6b	0.0068048737
190	0xbc709e90	-0.014686242
191	0xbcbacaf8	-0.022801861
192	0x3d586193	0.05282743
193	0xbd6c9686	-0.057760738
194	0x3ccbab84	0.024862058
195	0x3b97c832	0.0046320194
196	0x3bf81acb	0.0075715533
197	0x3ceb5cf0	0.02873084
198	0xbd945211	-0.072422154
199	0x3bbb8152	0.0057222033
200	0xbc9189f7	-0.017765982
201	0xba926569	-0.0011169139
202	0xbc7e1bc9	-0.015509554
203	0x3d3ed9b1	0.046594325
204	0x3d6c6a83	0.057718765
205	0x3d2e3bd0	0.04253751
206	0xbc9cac7f	-0.019125221
207	0x3ccd8261	0.025086584
208	0xbda91444	-0.082558185
209	0x3d8f81ed	0.07007203
210	0xbdaad415	-0.08341233
211	0xbd5eb3a8	-0.054370552
212	0x3d9da8e8	0.07698232
213	0xbd7c67a6	-0.061622284
214	0x3d3ca7c6	0.04605844
215	0xbd466736	-0.048438273
216	0x3d941958	0.072313964
217	0x3d398312	0.045291014
218	0x3d81b99f	0.063342325
219	0xbdb9f629	-0.090801544
220	0xbda25912	-0.07927145
221	0x3c80daa9	0.015729265
222	0xbd37b6c2	-0.044852026
223	0xbd95c009	-0.073120184
224	0x3c7a80af	0.01528947
225	0xba25e5d1	-0.0006328496
226	0xbcc22128	-0.02369745
227	0x3d3d546c	0.04622309
228	0xbd07aac6	-0.033121847
229	0xbb9f80e2	-0.004867659
230	0xbd908e8f	-0.07058441
231	0xbc9ac74a	-0.018893857
232	0xbcf7e2c0	-0.03025949
233	0x3d795cef	0.060879644
234	0xbc9bf608	-0.019038215
235	0xbd3fa32b	-0.04678647
236	0xbd5bc3ef	-0.053653654
237	0x3d4390f8	0.047745675
238	0xbd814650	-0.06312239
239	0xbbde48ed	-0.006783596
240	0x3d2a3cc0	0.041561842
241	0xbbb61a01	-0.005557299
242	0x3d888f88	0.066680014
243	0xbbb4f811	-0.005522736
244	0xbd8f885f	-0.070084326
245	0x3d10a09c	0.03530942
246	0xbd737576	-0.05943819
247	0x3d3ff36e	0.046863012
248	0x3d4b1df6	0.04958912
249	0xbd00fe9d	-0.03149282
250	0xbdabb4b0	-0.08384073
251	0x3d6d4748	0.057929307
252	0x3d747ca2	0.05968917
253	0xbc96a8bd	-0.018391008
254	0xbd2e8984	-0.042611614
255	0xbb74d35a	-0.003735742

encoder1.2.bias f4 [16]
0	0x3d8f2d75	0.06991092
1	0x3c66502d	0.014057201
2	0x3d9bc152	0.07605232
3	0xbd2bb28e	-0.04191833
4	0x3d94c02d	0.07263217
5	0xbd421be3	-0.047389876
6	0x3bea8442	0.0071568796
7	0x3d8f8120	0.070070505
8	0x3d875196	0.06607358
9	0x3b99a898	0.0046892874
10	0xbd9ee866	-0.0775917
11	0xbbe615ed	-0.0070216567
12	0x3d40711a	0.046982862
13	0x3d5b83cb	0.053592484
14	0x3d94b4dd	0.072610594
15	0x3d85e520	0.06537843

encoder2.0.weight f4 [32, 16, 3, 3]
0	0x3d3574f8	0.044301003
1	0x3c6a270b	0.014291535
2	0xbc342be9	-0.010996797
3	0x3c552797	0.013009927
4	0xbc810c04	-0.0157528
5	0xbdb67437	-0.08908885
6	0x3a7f0b95	0.0009729204
7	0xbd3cf0ad	-0.046127964
8	0x3d1d44e4	0.038395777
9	0xbd987d66	-0.07445793
10	0x3cc2f9d7	0.023800774
11	0xbbd766d6	-0.0065735383
12	0x3d338065	0.04382362
13	0x3c2eddc3	0.010672989
14	0x3d42eff9	0.047592137
15	0x3c08b6d6	0.008344373
16	0x3d74a87a	0.059730984
17	0x3d35df97	0.044402685
18	0xbd808080	-0.062745094
19	0x3bb6fe99	0.0055845496
20	0x3aa374df	0.0012470743
21	0x3bba170c	0.005679017
22	0x3b9cd563	0.00478618
23	0xbcf0a6e3	-0.029376453
24	0xbd873d7b	-0.06603523
25	0xbc086d5d	-0.0083268555
26	0xbd9c24f2	-0.07624234
27	0x3d4110e6	0.047135256
28	0xbd3dad84	-0.046308056
29	0xbd92f610	-0.07175839
30	0x3d7813ec	0.060565874
31	0x3d2f4821	0.042793397
32	0x3d57cb65	0.052684207
33	0xbd7de236	-0.06198331
34	0xbda7760d	-0.08176813
35	0x3c7780aa	0.0151063595
36	0xbd047a04	-0.032342926
37	0xbd9452b9	-0.072423406
38	0x3d5c3c32	0.053768344
39	0xbd8de102	-0.069276825
40	0x3d54a50f	0.051915225
41	0xbba01e52	-0.004886427
42	0xb9d084cf	-0.00039771802
43	0xbda57fab	-0.08080991
44	0x3c88ea66	0.016713332
45	0xbd3bd8b9	-0.04586098
46	0xbbfa3051	-0.0076351543
47	0xbc7a00ac	-0.015258949
48	0xbc7ecd3a	-0.0155518595
49	0xbcd0edc7	-0.025504006
50	0xbd7fd83c	-0.062462077
51	0x3d42d03e	0.047561876
52	0x3d5aca3f	0.053415533
53	0x3d2848eb	0.041085165
54	0x3da8c8e6	0.08241443
55	0x3c284c71	0.010272131
56	0xbc418388	-0.011811145
57	0x3d5aab35	0.053385932
58	0xbd86a617	-0.06574648
59	0xbcc6c53b	-0.024263969
60	0x3d6fbc33	0.05852909
61	0x3d4bedfd	0.04978751
62	0xbd09561f	-0.033529397
63	0xbda3d83e	-0.08000229
64	0x3a67044e	0.0008812592
65	0xbca639ee	-0.020291295
66	0xbda97aa7	-0.08275347
67	0xbd9bb68f	-0.0760318
68	0x3cd3bd46	0.025847089
69	0xbd86e397	-0.06586378
70	0x3d11d4ce	0.035603337
71	0xbd02a59c	-0.03189622
72	0xbda6fc7c	-0.08153626
73	0xbd58a042	-0.05288721
74	0xbda1ea3e	-0.07906006
75	0xbc7c0d8c	-0.015384089
76	0xbc2506dc	-0.010072436
77	0x3cf69258	0.030099079
78	0xbd5012c6	-0.050799154
79	0xba9f947a	-0.0012174987
80	0x3c4635a1	0.012097747
81	0x3d218f5f	0.03944337
82	0xbb07c6e4	-0.0020717913
83	0x3d3f6769	0.04672948
84	0x3c9554f1	0.01822898
85	0x3d3addef	0.04562181
86	0x3cab689c	0.020923905
87	0x3d155289	0.036455665
88	0xbd4d2846	-0.050087236
89	0x3d509e2e	0.050932102
90	0xbb14cda0	-0.002270557
91	0xbd2937ab	-0.041312855
92	0xbda92a2a	-0.08259995
93	0xbd611d1c	-0.0549594
94	0xbd9759c8	-0.07390171
95	0x3d01ae8b	0.031660598
96	0x3d4e413a	0.050355174
97	0xbd7c5c10	-0.061611235
98	0x3c06c018	0.00822451
99	0x3d83a4a6	0.064278886
100	0xbda148ab	-0.078751884
101	0xbda07830	-0.07835424
102	0xbd10f3b8	-0.03538868
103	0x3d92a937	0.071611814
104	0x3c4fd125	0.012684141
105	0xbd76a553	-0.06021626
106	0xbca498d5	-0.020092407
107	0x3d2ac451	0.04169113
108	0x3cb5e28f	0.022202758
109	0x3d162b87	0.036662605
110	0xbd7ed979	-0.062219117
111	0x3d71871b	0.058966737
112	0xbd36a359	-0.044589374
113	0x3d68cdae	0.056836776
114	0xbcdb5d1d	-0.026777798
115	0x3bf096a6	0.0073421774
116	0xbd40d70c	-0.047080085
117	0x3cac83e7	0.02105899
118	0x3d8b4d5a	0.06801863
119	0xbd23fc12	-0.040035315
120	0x3d8189d7	0.06325119
121	0xbc7b5cb1	-0.015341924
122	0xbd0cccc0	-0.034374952
123	0x3d282f8b	0.041060966
124	0xbd585286	-0.052813075
125	0xbd8efa84	-0.06981376
126	0x3cae3ad9	0.021268295
127	0xbd7da228	-0.061922222
128	0xbd745203	-0.059648525
129	0xbc293f7a	-0.010330075
130	0x3d94da50	0.07268202
131	0xbd45bf73	-0.048278283
132	0x3d83901a	0.064239696
133	0xbd5de2c5	-0.054171342
134	0x3d2d4eaf	0.042311367
135	0x3d9a7177	0.07541173
136	0xbd8a0746	-0.067396685
137	0xbcd2510a	-0.025673408
138	0xbd92aa8e	-0.07161437
139	0x3d06ab08	0.03287795
140	0xbd406b06	-0.046977066
141	0x3bc35e11	0.0059621413
142	0xbbef75c1	-0.0073077385
143	0x3d2927cf	0.04129773
144	0xbca7b735	-0.020473102
145	0x3db0621a	0.086124614
146	0xbd6c079d	-0.057624448
147	0xbb039fcd	-0.0020084262
148	0x3ce5a189	0.028031128
149	0x3dbb4a60	0.09145045
150	0x3d4f8cb8	0.05067131
151	0x3c0fd89b	0.00877967
152	0xbd8bcc5e	-0.06826089
153	0x3cae5da1	0.02128488
154	0x3c7a6fea	0.015285471
155	0x3ca4c330	0.020112604
156	0xbd74f7ab	-0.059806507
157	0xbd1e08d9	-0.038582657
158	0xbcc37d04	-0.023863323
159	0x3cf9cd62	0.030493442
160	0x3ccf901c	0.025337271
161	0xbd804e1b	-0.062648974
162	0xbc662e79	-0.014049166
163	0x3b5ea7c9	0.003397452
164	0x3d4dfdba	0.0502908
165	0x3d9c05ca	0.07618292
166	0xbaea2f90	-0.0017866958
167	0xbcee441b	-0.02908521
168	0xbc5efaa7	-0.013609565
169	0x3d679e6a	0.05654756
170	0x3d0b1838	0.033958644
171	0xbd0f35c3	-0.03496338
172	0x3d7c182d	0.061546493
173	0x3d9481b9	0.07251305
174	0xbc91124f	-0.017708926
175	0xbd42942d	-0.047504593
176	0x3c6b1899	0.014349126
177	0x3cfdef0f	0.030997781
178	0x3d8d8d10	0.06911671
179	0x3ceb476c	0.02872058
180	0xbd12f6b9	-0.035879824
181	0xbaf88879	-0.001896157
182	0x3d8656da	0.06559534
183	0x3d721851	0.05910522
184	0x3d021c38	0.031765193
185	0xbc421cfd	-0.011847732
186	0x3d872fa2	0.06600882
187	0xbd2ac55b	-0.04169212
188	0x3da893e1	0.08231331
189	0x3da96d3d	0.08272789
190	0x3dad0177	0.08447545
191	0xbc2e923b	-0.010654981
192	0x3d8fe961	0.07026935
193	0x3be42cd4	0.0069633517
194	0x3d62448d	0.055241156
195	0x3b9d7324	0.0048049856
196	0x3d5af974	0.053460553
197	0x3d621344	0.055194154
198	0x3da5448a	0.080697134
199	0x3db41fda	0.08795138
200	0x3d2ece22	0.042677052
201	0xbd83e72a	-0.064405754
202	0xbc74dc27	-0.0149450665
203	0xbd8ec068	-0.06970292
204	0xbd87ac54	-0.06624666
205	0x3d9b0b99	0.075705715
206	0xbd75a523	-0.05997194
207	0x3d961a89	0.0732928
208	0x3cb037fb	0.021511069
209	0x3c8d5691	0.017253192
210	0x3d868b64	0.065695554
211	0xbce83037	-0.028343303
212	0xbc158e99	-0.009128236
213	0x3d85eda7	0.06539469
214	0x3b8b3305	0.0042480254
215	0x3d47d8b1	0.048790637
216	0x3d7e51ed	0.06208985
217	0xbd1b8561	-0.037968997
218	0x3d4c8792	0.049933977
219	0x3c86ed8e	0.016470697
220	0x3bacce57	0.005273621
221	0x3ccf7c5a	0.02532785
222	0x3d81d18e	0.063387975
223	0xbcec2eca	-0.028830905
224	0x3d55ca02	0.052194603
225	0xbafaae9f	-0.0019125527
226	0x3da99d8a	0.08282001
227	0xbcead7b0	-0.028667301
228	0x3b952ca5	0.004552441
229	0x3a06bcd4	0.0005139832
230	0x3d773144	0.060349718
231	0x3c9f0242	0.019410256
232	0x3da42994	0.08015743
233	0xbba4151c	-0.0050073992
234	0x3c9e4b5c	0.019323044
235	0x3cff2e4a	0.031150002
236	0xbda53687	-0.08067041
237	0x3da9f4c4	0.082986385
238	0x3d62516c	0.05525343
239	0x3d059e87	0.032621887
240	0xbda058cd	-0.078294374
241	0xbcbee935	-0.023304561
242	0x3d191054	0.037369087
243	0x3d933587	0.07187944
244	0xbd707559	-0.05870566
245	0x3c8ec6d8	0.0174288
246	0x3dac9a90	0.08427918
247	0x3d67f685	0.056631584
248	0x3d99e1aa	0.07513745
249	0xbd3ed931	-0.04659385
250	0x3dacd499	0.08438987
251	0x3da22f43	0.07919171
252	0xbd1cfca2	-0.038326867
253	0xbcd30500	-0.02575922
254	0x3d748cd3	0.059704613
255	0x3da45816	0.080246136

encoder2.0.bias f4 [32]
0	0xbc333bc8	-0.010939546
1	0x3dbb27cb	0.09138449
2	0x3c95a31b	0.018266251
3	0xbd5fdb12	-0.05465228
4	0x3daca6e4	0.08430269
5	0x3d8cd838	0.06877178
6	0xbd8ae537	-0.067820005
7	0x3d8504f9	0.06495089
8	0xbcb47bfc	-0.022031777
9	0xbb9af48b	-0.004728859
10	0xbd41a374	-0.04727502
11	0xbd06a7d6	-0.032874905
12	0xbd032c1e	-0.032024495
13	0x3d640217	0.055666056
14	0xbcf3e9a6	-0.029774498
15	0xbd81efae	-0.063445434
16	0x3b5e4947	0.0033918188
17	0xbb9fa877	-0.0048723775
18	0xbccd67d4	-0.025073923
19	0xbd51fbdd	-0.051265586
20	0xbd5bd138	-0.053666323
21	0x3b31920a	0.0027095103
22	0x3d18db5f	0.037318584
23	0x3b02ba9b	0.0019947651
24	0x3d300326	0.042971753
25	0x3c3350f5	0.010944595
26	0xbd1ad871	-0.03780407
27	0x3d154f6f	0.036452707
28	0x3d39d31e	0.045367353
29	0x3d794455	0.060856182
30	0x3d7b083a	0.061287142
31	0x3cf42205	0.029801378

encoder2.2.weight f4 [32, 32, 3, 3]
0	0x3cbf053f	0.023317931
1	0x3cb90207	0.022583975
2	0xbc2648d7	-0.010149202
3	0xbcdc4c6f	-0.026891915
4	0x3d2ae456	0.041721664
5	0x3cbb6e82	0.022879843
6	0xbd46cf3b	-0.048537474
7	0x3d631f55	0.055449802
8	0xbc00497a	-0.007830018
9	0x3d89d0b6	0.067292616
10	0xbd2769e2	-0.040872462
11	0xbaca6a3f	-0.0015443041
12	0x3caf8878	0.021427378
13	0x3cd8e7c6	0.026477706
14	0x3c0d94dd	0.008641449
15	0xbcdec41e	-0.027193125
16	0xbd3df4d3	-0.04637606
17	0xbd0464fe	-0.032322876
18	0xbd446722	-0.047949918
19	0x3b66ad8a	0.0035198652
20	0x3d50d03a	0.05097983
21	0x3ca3f27e	0.02001309
22	0xbab979df	-0.00141507
23	0xbc80de07	-0.01573087
24	0x3cbe9078	0.023262247
25	0xbcb18c61	-0.021673383
26	0x3caae022	0.020858828
27	0x3c67702e	0.014125867
28	0x3b916801	0.004437447
29	0x3cb53ad1	0.022122772
30	0x3d831ca8	0.0640195
31	0xbcaa243c	-0.020769231
32	0x3d456e77	0.04820105
33	0x3d5cffa5	0.05395474
34	0x3d82a634	0.06379357
35	0x3d622c7e	0.055218212
36	0x3d53e35d	0.051730502
37	0xba1ce84c	-0.00059855427
38	0x3d7781d1	0.060426537
39	0xbc9709f1	-0.018437358
40	0x3bd51002	0.0065021524
41	0xbd32db3d	-0.043666113
42	0xbc04653c	-0.008080777
43	0x3d574300	0.05255413
44	0x3cf3b6c7	0.029750241
45	0x3d05b550	0.032643616
46	0x3d7f58ee	0.06234067
47	0x3d8317ab	0.06400999
48	0x3caea1af	0.021317331
49	0xbcf03da6	-0.029326271
50	0xbd2c94b7	-0.042134013
51	0x3cec824b	0.028870722
52	0x3ce57f68	0.028014854
53	0xbc68655a	-0.01418432
54	0x3ceb0fbe	0.02869403
55	0x3d6a172a	0.057150997
56	0xbca3324e	-0.019921448
57	0x3d025be7	0.031825926
58	0x3ba7d505	0.0051218295
59	0xbcb5a0fd	-0.022171492
60	0x3d6cb323	0.057788026
61	0x3ba2a4d6	0.0049634976
62	0x3d212785	0.03934433
63	0x3d21c9a5	0.039498944
64	0x3d80f00d	0.06295786
65	0xbc65eea9	-0.014033952
66	0x3d60fc2f	0.054928
67	0x3d890c26	0.0669177
68	0xbcc95a0b	-0.024579069
69	0xbba56443	-0.0050473525
70	0x3d2385db	0.039922576
71	0xbcac8928	-0.021061495
72	0xbb2cac50	-0.0026347823
73	0x3b8cd4c8	0.0042978264
74	0x3c463e84	0.012099866
75	0xbd67e066	-0.056610487
76	0x3d23ab0b	0.03995804
77	0xb7016000	-7.711351e-06
78	0x3c19a13c	0.00937682
79	0xbc97f302	-0.018548492
80	0xbd37722e	-0.044786625
81	0x3d537683	0.051626693
82	0xbd426f97	-0.0474697
83	0x3d11c00e	0.03558355
84	0xbc2fe35b	-0.010735358
85	0x3c9a526e	0.018838134
86	0x3cad6a7d	0.021168942
87	0x3b18f91a	0.0023341835
88	0xbd1314ce	-0.035908513
89	0xbc05aad8	-0.008158408
90	0x3ba160fc	0.0049248915
91	0xbd386d5a	-0.04502616
92	0x3c496574	0.012292255
93	0x3c8a3772	0.016872142
94	0xbba7892c	-0.0051127877
95	0xbbd33c7c	-0.0064464193
96	0x3c53ecc0	0.012934864
97	0xbd0978db	-0.033562522
98	0x3cb2a768	0.021808341
99	0x3c563b71	0.013075695
100	0x3d367df7	0.044553723
101	0xbd2aa1e4	-0.041658297
102	0xbad0010d	-0.0015869454
103	0xbca4c891	-0.020115169
104	0xbd687dd2	-0.056760617
105	0xbb811587	-0.003939334
106	0x3bcc8e46	0.0062425463
107	0x3ca8e25c	0.020615749
108	0xbb6aa098	-0.0035801288
109	0xbcda8658	-0.026675388
110	0x3d8b2ef7	0.06796067
111	0x3d2e9419	0.042621706
112	0xbc48a102	-0.0122454185
113	0x3d86b6a3	0.06577804
114	0x3ca3292a	0.01991709
115	0x3cd4dc91	0.02598408
116	0x3c875566	0.016520213
117	0x3cbeccf8	0.023291096
118	0x3d2bf63e	0.04198288
119	0x3d6304d3	0.055424523
120	0x3d22101f	0.039566156
121	0x3c8ab1b4	0.016930439
122	0x3d07ea25	0.033182282
123	0x3d648565	0.055791277
124	0x3d04bd17	0.032406893
125	0xbbe66b73	-0.007031852
126	0xbc7e2b0e	-0.015513195
127	0x3d59e377	0.053195443
128	0xbd15961e	-0.036520116
129	0xbd004418	-0.03131494
130	0x3b83329d	0.0040038363
131	0xbb88d1f4	-0.004175419
132	0xbbf143ea	-0.0073628323
133	0x3d4473aa	0.04796187
134	0xbd0f93fb	-0.035053235
135	0xbd3fafaf	-0.046798404
136	0x3ad4ecd7	0.00162449
137	0xbd5a9417	-0.053363886
138	0x3d57e448	0.05270794
139	0xbd639b16	-0.055567823
140	0xbd010355	-0.03149732
141	0x3d1e8287	0.0386987
142	0x3cf51a10	0.029919654
143	0xbd1415ab	-0.036153477
144	0xbcff4350	-0.031160027
145	0xbd1c329a	-0.038134195
146	0x3d4eca1c	0.050485715
147	0x3d242414	0.04007347
148	0xbce61aa7	-0.02808888
149	0xbd115e61	-0.035490397
150	0xbd3b3c62	-0.045711882
151	0xbaf4dd17	-0.0018681613
152	0x3d78e8ce	0.060768895
153	0xbd4df650	-0.05028373
154	0x3bf199f7	0.0073730904
155	0x3d1ec56a	0.038762487
156	0xbcd096f8	-0.025462613
157	0xbd041059	-0.032242153
158	0x3d0910f7	0.033463445
159	0x3ae14cea	0.001718906
160	0xbd058f01	-0.032607082
161	0xbcc2070d	-0.023685003
162	0x3cb44ac6	0.022008311
163	0x3d323227	0.04350486
164	0xbcb2b2da	-0.021813799
165	0x3c37a4d7	0.0112087345
166	0xbca6939b	-0.020334056
167	0xbc8ed4fc	-0.017435543
168	0x3d38ecb6	0.04514762
169	0xbd3726b9	-0.044714663
170	0xbcf3533e	-0.029702779
171	0x3d2bb6c3	0.041922342
172	0x3d2ec009	0.042663608
173	0x3b6ef278	0.003646044
174	0x3c2b873a	0.010469252
175	0xbbe0abac	-0.0068564024
176	0xbcbd20ef	-0.023086993
177	0x3ccf0919	0.025272893
178	0xbd32a5e9	-0.043615256
179	0x3c226371	0.009911404
180	0x3d5e06ca	0.054205693
181	0x3cf592f3	0.029977297
182	0x3d3786bc	0.044806227
183	0x3d27542a	0.04085175
184	0xbcc01de8	-0.02345176
185	0x3ad7277a	0.0016414963
186	0xbc766888	-0.015039571
187	0xba0ac84f	-0.00052941305
188	0x3d6d5106	0.057938598
189	0x3d63fd0f	0.055661257
190	0xbb8220ba	-0.0039711865
191	0x3a87927f	0.0010343342
192	0xbd227993	-0.039666723
193	0xbd4406a9	-0.047857914
194	0x3cf81e68	0.030287936
195	0x3aaa1ae7	0.0012977988
196	0x3ad1dc34	0.001601106
197	0x3d18cb0e	0.037303023
198	0xbd1cf656	-0.03832086
199	0x3c6addcd	0.014335108
200	0xbd374344	-0.044741884
201	0x3b9ae1e3	0.004726635
202	0xbd43ef99	-0.04783592
203	0x3cf9febb	0.030516973
204	0x3c0c2c5b	0.008555497
205	0xbd2efb11	-0.042719904
206	0x3c1f2877	0.009714237
207	0xbabead59	-0.0014547511
208	0x3d3173c4	0.043323293
209	0xbcf57388	-0.029962316
210	0xba836dd7	-0.0010027242
211	0xbcb5e975	-0.022206048
212	0x3d2a8e29	0.04163948
213	0xbcc75ab8	-0.02433525
214	0x3d757494	0.05992563
215	0x3d300fc6	0.042983793
216	0x3d26e6dd	0.040747512
217	0x3d82ce27	0.06386977
218	0xbc9f5434	-0.01944933
219	0xbc8b933b	-0.017037978
220	0xbd499bc8	-0.04922083
221	0xbc982736	-0.018573385
222	0x3cb95fcf	0.022628693
223	0x3d3fd5a4	0.046834603
224	0x392e1861	0.00016603015
225	0x3bb3fb72	0.005492621
226	0x3d62586f	0.055260118
227	0xba81e855	-0.0009911159
228	0xbc8f6625	-0.017504761
229	0xbd21e359	-0.039523456
230	0xbc1c77dd	-0.009550062
231	0x3cae61b4	0.021286823
232	0x3d81b4a8	0.063332856
233	0x3d6b1439	0.057392333
234	0xba806f3b	-0.0009798774
235	0xbcf9853e	-0.030459043
236	0x3d02de38	0.031950206
237	0xbcc3b662	-0.023890678
238	0x3c8d8f71	0.017280312
239	0x3c0a6bcc	0.008448552
240	0x3d765ddb	0.0601481
241	0x3ce563ea	0.028001744
242	0xbbcd6976	-0.0062686754
243	0x3d76bf46	0.060241006
244	0xbd2c745f	-0.042103168
245	0x3c51a581	0.012795807
246	0x39db5833	0.0004183665
247	0x3d737caf	0.05944508
248	0x3d7bef7a	0.06150768
249	0x3d0071bb	0.03135846
250	0xbb94a089	-0.004535739
251	0xbd002e85	-0.031294364
252	0x3c4bb74d	0.012433839
253	0x3c56bb3f	0.013106166
254	0xbd285319	-0.041094873
255	0x3d49753c	0.04918407

encoder2.2.bias f4 [32]
0	0x3cc8010e	0.024414565
1	0x3d855b05	0.06511501
2	0x3cb6a84d	0.022297049
3	0xbcd41050	-0.025886685
4	0x3c8af993	0.01696471
5	0xbc3018d0	-0.010748103
6	0x3d76faa1	0.060297612
7	0x3d726f80	0.059188366
8	0xbb23afa8	-0.0024976525
9	0xbc84b322	-0.016198698
10	0x3d82f686	0.06394677
11	0xbd27291f	-0.0408107
12	0xbcb4b925	-0.02206094
13	0xbc61fb8f	-0.013792886
14	0x3be3fb51	0.0069574495
15	0xbba8f118	-0.0051556937
16	0x3ca4c2ca	0.020112414
17	0x3d3ebc59	0.04656634
18	0xbd4654cd	-0.048420716
19	0x3d6d416e	0.057923727
20	0xbc98e5e8	-0.018664315
21	0x3cc7232e	0.024308767
22	0xbc74642a	-0.014916459
23	0xbc15a1ca	-0.009132812
24	0x3d0725e0	0.032995105
25	0xbcecd02f	-0.028907863
26	0x3cc10823	0.02356345
27	0xbcb6ec0b	-0.022329351
28	0x3d8fe83a	0.070267156
29	0x3d4c56d6	0.0498875
30	0xbcc567e6	-0.024097394
31	0xbc83a5ed	-0.01607033

bottleneck.0.weight f4 [64, 32, 3, 3]
0	0x3c1bacee	0.009501679
1	0x3c3e52f7	0.01161646
2	0xbc0559ee	-0.008139117
3	0xbc173555	-0.009229024
4	0xbcb42c83	-0.021993881
5	0xbcd7ba96	-0.026334088
6	0x3d1454cf	0.036213692
7	0x3cbffed7	0.023436947
8	0xbc111ef5	-0.008857478
9	0xbd516ba3	-0.05112804
10	0xbd3249af	-0.0435273
11	0x3c87936b	0.016549787
12	0x3c9ac8a0	0.018894494
13	0x3d4aca42	0.049509294
14	0x3b5d2c03	0.0033748157
15	0x3c3cb9ec	0.011518937
16	0xbccd6203	-0.02507115
17	0x3c96f307	0.018426431
18	0xbaafa449	-0.0013400401
19	0xbc1cfa06	-0.009581095
20	0xbcce7b1f	-0.025205193
21	0xbd5485f2	-0.051885553
22	0x3ccb3dab	0.024809679
23	0x3d449ba9	0.04800001
24	0x3c5073c5	0.012722914
25	0x3d2f368d	0.042776633
26	0xbc50afe9	-0.012737253
27	0x3cdae44e	0.026720192
28	0xbcc0f16a	-0.023552615
29	0x3d40d5a9	0.047078762
30	0x3d404b93	0.046947073
31	0x3d41bc4f	0.047298726
32	0x3d6ecbb9	0.058299754
33	0x3bbf36b8	0.0058353804
34	0x3cca6a3a	0.024708856
35	0xbd3e8c76	-0.046520673
36	0xbcfe560c	-0.03104689
37	0x3d26c913	0.040719103
38	0xbd0b4276	-0.03399893
39	0xba1b3a77	-0.00059214927
40	0xbcfe983b	-0.031078449
41	0xbd59e91c	-0.053200826
42	0xbbe128e3	-0.006871329
43	0x3d1517dc	0.036399707
44	0xbd3b7e46	-0.04577472
45	0x3c31f8fe	0.010862587
46	0x3c071e70	0.008247003
47	0xbd3b20f7	-0.045685735
48	0xbb1520bb	-0.0022755105
49	0x3d382b9f	0.044963475
50	0x3d1386f5	0.036017377
51	0xbd33e0f4	-0.043915704
52	0x3d4c1949	0.0498288
53	0xbd77a084	-0.060455814
54	0xbd1614d3	-0.036640953
55	0xbbc3eb70	-0.005978994
56	0x3c6239f3	0.0138077615
57	0xbd5430a5	-0.051804204
58	0x3d44366f	0.047903474
59	0xbd3db58f	-0.046315726
60	0xbd724193	-0.059144568
61	0x3ce6a3e5	0.028154323
62	0xbd54b253	-0.051927876
63	0xbceb56e2	-0.028727952
64	0xbd7677aa	-0.060172714
65	0xbd853921	-0.06505037
66	0xbafdf6fa	-0.0019375973
67	0xbc823c92	-0.015898023
68	0xbc5c7af0	-0.013457045
69	0xbd5e1ac7	-0.054224756
70	0xbd01a545	-0.031651754
71	0xbcbf82e6	-0.023377847
72	0xbb383a7e	-0.0028111036
73	0xbc914d8f	-0.017737178
74	0x3cf12f63	0.029441541
75	0xbc2f745f	-0.010708897
76	0x3ca25481	0.019815685
77	0x3c3bd858	0.011465155
78	0x3c463d37	0.012099556
79	0x3d13070a	0.035895385
80	0x3cf00a50	0.029301792
81	0x3cba08ce	0.022709277
82	0x3ccb7e49	0.02484049
83	0xbd5ab9cc	-0.053399846
84	0x3d56300f	0.052291926
85	0xbd09aed7	-0.033614006
86	0x3d232710	0.039832175
87	0x3d2c0372	0.041995473
88	0x3cb79021	0.022407593
89	0xbd63a046	-0.05557277
90	0xbd66cf82	-0.05635024
91	0xbc091868	-0.008367635
92	0x3d520c84	0.051281467
93	0xbc88c72a	-0.016696531
94	0x3cf6f829	0.030147629
95	0xbd417d99	-0.04723892
96	0xbd1def58	-0.038558334
97	0xbcd3c7cc	-0.025852107
98	0x3d214277	0.039370026
99	0xbc1114d9	-0.008855068
100	0x3d2dc9e0	0.04242885
101	0x3c914102	0.017731193
102	0xbcbb2d65	-0.022848794
103	0xbd2ea2bd	-0.042635668
104	0x3c882a00	0.01662159
105	0xbd0c7669	-0.034292612
106	0xbcacedf4	-0.021109559
107	0x3d4f6c27	0.05064025
108	0x3d2c270b	0.04202942
109	0x3d53cf63	0.05171145
110	0x3cda126a	0.026620109
111	0xbd710e59	-0.058851574
112	0xbd2f6a78	-0.042826146
113	0x3cb6d432	0.02231798
114	0xbd1d1391	-0.038348738
115	0xbcc7a703	-0.02437163
116	0x3d48138d	0.04884677
117	0x3d1a5eca	0.037688054
118	0x3cfec7b9	0.031101095
119	0xbc7590f4	-0.014988173
120	0x3d04e826	0.032447957
121	0x3d39595d	0.04525124
122	0x3cdcff85	0.02697731
123	0xbcb47617	-0.022028966
124	0x3c757e20	0.014983684
125	0x3cc3ca64	0.023900218
126	0x3b9607eb	0.0045785806
127	0x3cf24bee	0.029577222
128	0xbd757a81	-0.059931282
129	0x3d47131e	0.048602216
130	0x3cac398c	0.021023534
131	0x3d3138b0	0.043266952
132	0x3c68cb2b	0.014208595
133	0x3d20742d	0.039173294
134	0xbd7fbf1c	-0.062438115
135	0x3d209c49	0.039211545
136	0xbcca3e92	-0.024688039
137	0xbd53c006	-0.0516968
138	0x3d1add34	0.037808612
139	0x3c67145a	0.014103973
140	0x3d0338bd	0.03203653
141	0x3d4eeae7	0.05051699
142	0xbd3bd813	-0.04586036
143	0x3c60cea4	0.013721142
144	0x3cf908fb	0.03039979
145	0xbd18a0bf	-0.037262674
146	0xbd540cbc	-0.051769957
147	0x3caede0f	0.02134612
148	0xbd3b15f6	-0.04567524
149	0x3d53d458	0.05171618
150	0x3be9d975	0.0071365186
151	0x3d456188	0.048188716
152	0xbc4fd301	-0.012684585
153	0x3ab66195	0.001391458
154	0x3ccd918c	0.025093816
155	0xbd2496b8	-0.0401828
156	0xbd5d2663	-0.053991687
157	0xbd5ff687	-0.054678466
158	0xbc252491	-0.010079519
159	0x3d4f6565	0.050633807
160	0xbafd8631	-0.001934236
161	0x3d2ecf82	0.042678364
162	0xbcee0bd9	-0.029058384
163	0x3d676165	0.056489367
164	0x3bd85a28	0.0066025443
165	0x3d319129	0.043351326
166	0xbcad2924	-0.021137781
167	0xbcb292fc	-0.021798603
168	0x3ce7039e	0.028199967
169	0x3d2b6b9b	0.041850667
170	0xbd536e4b	-0.051618855
171	0xbd299015	-0.041397173
172	0x3ca318e8	0.019909337
173	0x3cb6e001	0.02232361
174	0xbcbbeb5d	-0.022939378
175	0x3c8870cc	0.016655348
176	0x3d4d2e91	0.050093237
177	0xbc9f80a6	-0.019470524
178	0xbd55bfe1	-0.052184943
179	0x3cde77b4	0.027156688
180	0x3cc5fae3	0.024167484
181	0xbcf2eb53	-0.029653227
182	0xbc3c3801	-0.011487962
183	0x3ca5093a	0.020146001
184	0xbd652410	-0.055942595
185	0xbcbc979e	-0.023021515
186	0xbc0523eb	-0.008126239
187	0xbcea4e8e	-0.02860191
188	0x3d5536e1	0.05205429
189	0xbb0675d0	-0.0020517
190	0xbd67278b	-0.056434195
191	0xbc4f989e	-0.012670664
192	0x3c6871fc	0.014187332
193	0xba7edc40	-0.0009722151
194	0x3d6e9dd0	0.05825597
195	0xbd44ba20	-0.048029065
196	0xbd0aa3f4	-0.033847764
197	0xbcf9d623	-0.030497616
198	0xbc9ff6cb	-0.01952686
199	0x3d2d1608	0.04225734
200	0x3c5c450f	0.013444199
201	0xbd1a2f8d	-0.037643004
202	0x3be7ac3b	0.007070092
203	0xbcb3f91b	-0.021969369
204	0xbbbbc743	-0.005730541
205	0xbc2adca4	-0.010428581
206	0x3d29c61c	0.041448697
207	0x3cbedbc3	0.02329815
208	0xbccd06ec	-0.025027715
209	0xbc6a122f	-0.014286562
210	0xbd1e8315	-0.03869923
211	0x3d480b83	0.048839103
212	0xbd4151f1	-0.047197286
213	0x3cebf5a1	0.028803648
214	0x3c95fed4	0.018309988
215	0x3cb3ba54	0.021939434
216	0xbd66e9ce	-0.056375317
217	0x3bbf8f25	0.0058459216
218	0x3d26738e	0.040637545
219	0xbd242b2d	-0.040080238
220	0xbc16c280	-0.009201646
221	0xbd228f4c	-0.03968744
222	0xbcff043e	-0.031129953
223	0xbce53f0b	-0.027984163
224	0x3d3562e1	0.04428375
225	0xbc598948	-0.013277359
226	0x3d6af08d	0.057358313
227	0xbd5d1ca2	-0.053982385
228	0x3be69a58	0.007037442
229	0xbca55d1c	-0.020186
230	0x3d328c53	0.043590855
231	0xbc599cbc	-0.013281997
232	0xbd23da44	-0.040003076
233	0x3d2b3863	0.04180182
234	0xbd014079	-0.031555627
235	0xbd378c7b	-0.044811707
236	0xbd37236e	-0.044711523
237	0x3bfc4491	0.0076986034
238	0x3d4a5ba0	0.049403787
239	0xbce1b7de	-0.027553495
240	0x3d15e829	0.03659836
241	0xbb8b96d0	-0.0042599216
242	0xbd3855be	-0.045003645
243	0xbc97b49c	-0.018518738
244	0x3d4cbdc5	0.049985666
245	0xbd262207	-0.040559795
246	0xbd7aad10	-0.0612002
247	0xbc8b85ce	-0.017031576
248	0xbd27a142	-0.04092527
249	0xbd2d384f	-0.04229003
250	0xbd694571	-0.05695099
251	0xbd68da3d	-0.056848753
252	0xbd478345	-0.048709173
253	0xbd53581a	-0.051597692
254	0xbd539ca6	-0.051663063
255	0x3d3ff13c	0.04686092

bottleneck.0.bias f4 [64]
0	0xbd08e797	-0.033423986
1	0xbd1d018b	-0.03833155
2	0xbb85ee37	-0.0040872353
3	0xbbf32540	-0.007420212
4	0xbd770187	-0.06030419
5	0xbc8ed525	-0.01743562
6	0x3d602d1a	0.054730512
7	0x3d6d206c	0.057892248
8	0x3d6d2cad	0.057903934
9	0x3d31fa68	0.043451697
10	0x3bf2010c	0.0073853787
11	0xbce07802	-0.027400974
12	0x3c8b1089	0.016975658
13	0x3c862f97	0.016380114
14	0xbd2e9543	-0.042622816
15	0xbd39f90f	-0.045403536
16	0xbd0d892c	-0.034554645
17	0xbd098276	-0.033571683
18	0xbd083b05	-0.03325941
19	0xbc867f2f	-0.016418068
20	0xbcc0d15d	-0.023537332
21	0x3d3bcf86	0.045852207
22	0xbd23e2e0	-0.040011287
23	0xbd075324	-0.033038273
24	0x3d0b52f3	0.034014653
25	0x3d35c5d2	0.04437811
26	0x3d850b0b	0.06496247
27	0xbd393bf0	-0.045223176
28	0x3d29d739	0.041465018
29	0xbbe08ea1	-0.00685294
30	0x3cb17bd8	0.021665499
31	0x3d4beb71	0.04978508
32	0x3ab4e203	0.0013800267
33	0x3d0c368f	0.03423172
34	0x3cf1439b	0.029451182
35	0x3bbc6ff8	0.0057506524
36	0xbd0878db	-0.03331838
37	0x3bcaf033	0.0061931848
38	0x3d24ee4c	0.04026632
39	0x3d478a7d	0.048716057
40	0xbb49c390	-0.003078673
41	0xbc96eb3c	-0.018422715
42	0x3d80a398	0.06281203
43	0xbd2a56b2	-0.041586585
44	0xbd3e5bac	-0.046474144
45	0x3c53ab1f	0.012919216
46	0xbcfe3e11	-0.031035455
47	0x3d63309c	0.05546628
48	0x3cad3ee6	0.021148156
49	0x399049ee	0.00027520902
50	0xbccc3797	-0.024928851
51	0xbc1c05eb	-0.009522895
52	0xbd1b7666	-0.03795471
53	0x3d133a83	0.035944473
54	0xbd4200dc	-0.0473641
55	0x3d414737	0.047187056
56	0xbd207a03	-0.03917886
57	0x3d3390c0	0.043839216
58	0x3d7b48e6	0.06134882
59	0xbd304e67	-0.04304352
60	0xbca1c8a4	-0.019748993
61	0xbd26d613	-0.0407315
62	0x3d6c9fda	0.057769634
63	0x3d4be079	0.04977462

bottleneck.2.weight f4 [64, 64, 3, 3]
0	0x3c41af4c	0.011821579
1	0x3cdaa99a	0.0266922
2	0xbc293ea4	-0.010329876
3	0xbc05a7ec	-0.0081577115
4	0x3cd91fec	0.02650448
5	0x3cc54119	0.024078893
6	0x3a3bc70b	0.00071631436
7	0xbb9c44fc	-0.0047689658
8	0x3d00f4f1	0.031483594
9	0x3cba650a	0.022753257
10	0x3d11588d	0.03548484
11	0xbc2777cc	-0.010221433
12	0x3c926ada	0.017873216
13	0x3ca06943	0.019581443
14	0x3c9800b4	0.018555023
15	0x3cd7c1e8	0.026337579
16	0xbcb6e37c	-0.02232527
17	0x3c295120	0.010334283
18	0xbd231e6b	-0.03982393
19	0xbd12ed3f	-0.035870787
20	0x3d225df1	0.03964037
21	0xbd12a973	-0.03580613
22	0xbd3146fa	-0.04328058
23	0x3d1939cc	0.037408635
24	0xbc442290	-0.011971131
25	0x3b572200	0.0032826662
26	0xbd0e9f9d	-0.034820188
27	0xbcda92b8	-0.02668129
28	0x3d1d1a15	0.038354952
29	0x3d1f17d5	0.038841087
30	0xbc95064e	-0.018191483
31	0x3c10daac	0.008841198
32	0xbc8fa873	-0.017536378
33	0x3d052d99	0.03251419
34	0xbc626a06	-0.013819223
35	0x3cc040e1	0.023468437
36	0xbc5d9790	-0.013524905
37	0xbc900d80	-0.017584562
38	0x3c2be9c4	0.010492746
39	0xbc2d4eb6	-0.010577848
40	0x3d0bc95b	0.034127574
41	0xbc8492bb	-0.016183248
42	0x3ca55f46	0.020187031
43	0x3c9d2946	0.01918472
44	0x3c3c4010	0.011489883
45	0x3cf109b2	0.029423568
46	0x3c043bf4	0.008070935
47	0xbcea956e	-0.028635707
48	0x3bd687a8	0.006546933
49	0x3d1dda70	0.038538396
50	0x3c963d5e	0.018339809
51	0xbd08d1cf	-0.033403214
52	0xbc4623f6	-0.012093535
53	0x3c6e2514	0.014535207
54	0xbc11a590	-0.008889571
55	0x3ca63132	0.02028713
56	0xbd272a2a	-0.040811695
57	0xba8d626f	-0.0010786782
58	0xbcec14b3	-0.028818464
59	0x3c4844bb	0.012223418
60	0x3c9bf07a	0.019035567
61	0x3c1f83ba	0.009735996
62	0xbc81ae7f	-0.015830277
63	0xbc0e45fc	-0.008683678
64	0xbd1621c4	-0.036653295
65	0xbae6b820	-0.0017602481
66	0xbcd4198a	-0.025891084
67	0xbc0c52f4	-0.008564699
68	0xbd3217ed	-0.04347985
69	0xbc93bfc2	-0.018035773
70	0xbcd53f7e	-0.026031252
71	0xbcaa8d0d	-0.020819211
72	0xbd0eff22	-0.034911282
73	0x3d2697af	0.040672
74	0xbb9372e8	-0.004499782
75	0x3bc7d692	0.006098577
76	0xbca3e670	-0.020007342
77	0xbd0ebdd9	-0.03484902
78	0x3c7a00d1	0.015258984
79	0xbc27dce4	-0.0102455355
80	0x3cc27ad6	0.023740213
81	0x3be3bd38	0.006950047
82	0xbcaf6b48	-0.02141346
83	0xbc5e68bc	-0.013574775
84	0xbd2a67ad	-0.04160278
85	0x3b859548	0.0040766336
86	0x3cf650de	0.030067857
87	0xbb33d0f6	-0.0027437783
88	0x3c2372e8	0.009976126
89	0x3b73e95d	0.0037217953
90	0x3cd43a42	0.025906686
91	0x3cfad1ca	0.030617613
92	0xbcd5a360	-0.02607888
93	0xbd1ed1fb	-0.03877447
94	0xbd24bd40	-0.040219545
95	0xbb4fe3f1	-0.0031721557
96	0xbcfc9748	-0.030833855
97	0x3bbef471	0.0058274795
98	0xbd22cd0e	-0.039746337
99	0x3d08d9ed	0.033410955
100	0xbcbccdbb	-0.023047319
101	0x3cce9c32	0.025220964
102	0x3d0747b1	0.033027355
103	0xbcd5c7d0	-0.026096255
104	0xbc9049cb	-0.017613312
105	0x3cb3c9ae	0.021946754
106	0xbc971276	-0.01844142
107	0x3cc027ea	0.023456533
108	0x3ba8bc08	0.005149368
109	0xbd0547a4	-0.032539025
110	0x3d11cc2d	0.035595108
111	0xbd01be09	-0.031675372
112	0x3d00453c	0.031316027
113	0x3cba5758	0.022746727
114	0xbc95b39f	-0.018274127
115	0x3d003f22	0.03131021
116	0x3b061aca	0.0020462745
117	0x398e7080	0.0002716817
118	0xbcbbb9ab	-0.022915682
119	0x3c822210	0.015885383
120	0xbd020f85	-0.03175308
121	0x3c7959f5	0.015219201
122	0x3bc2b6c1	0.005942196
123	0x3bfc570f	0.007700808
124	0xbc7f5804	-0.015584949
125	0x3d14622c	0.036226436
126	0xbd1554d7	-0.036457863
127	0xbd10dc26	-0.0353662
128	0xbbe611a0	-0.007021144
129	0xbc84ca23	-0.016209668
130	0x3bc58da0	0.006028846
131	0x3cc1f78e	0.023677614
132	0xbd0dd4de	-0.034626834
133	0xbcac9e30	-0.021071523
134	0xbcafd5de	-0.021464285
135	0x3cb330e6	0.021873903
136	0xbbd8c9b8	-0.0066158436
137	0x3c7de744	0.015497033
138	0xbc8c470e	-0.017123725
139	0x3cfe7b0e	0.031064536
140	0xbcdd83b8	-0.027040347
141	0xbcf13606	-0.029444706
142	0xbcae30c8	-0.021263495
143	0x3ca40850	0.020023495
144	0x3ca04068	0.019561961
145	0xbd03de3b	-0.032194357
146	0xbc9b4703	-0.01895476
147	0x3c730c7c	0.0148345195
148	0x3cc6c0ee	0.024261918
149	0xbd183786	-0.037162326
150	0xbc805b5b	-0.015668562
151	0xbc168cd5	-0.00918885
152	0xbc524ca9	-0.01283566
153	0xbd1003d3	-0.035159897
154	0x3c41766c	0.011808019
155	0xbc496cb0	-0.0122939795
156	0x3c106d84	0.008815173
157	0xbd079384	-0.033099666
158	0xbd178283	-0.0369897
159	0xbd071d48	-0.03298691
160	0x393b5d00	0.00017868355
161	0xbd19d412	-0.03755576
162	0x3c0735cc	0.008252572
163	0xbd02f438	-0.031971186
164	0x3d0db867	0.034599688
165	0xba8de818	-0.0010826616
166	0x3b1b654a	0.0023711496
167	0x3c6a69f3	0.014307487
168	0xbcfeabe2	-0.03108782
169	0xbd284f68	-0.041091353
170	0x3c8fe99b	0.017567446
171	0x3d1a39b7	0.037652697
172	0x3cc7ddee	0.024397817
173	0xbc5be406	-0.013421064
174	0xbc69b270	-0.014263734
175	0x3cb46c92	0.022024427
176	0xbc908fe3	-0.017646736
177	0x3d1f703d	0.0389254
178	0x3cc7bca2	0.02438194
179	0x3c80ba86	0.015713941
180	0xbcc3d366	-0.023904514
181	0x3d05a0fd	0.032624234
182	0xbc716a30	-0.01473479
183	0xbd1a1598	-0.03761825
184	0x3b962278	0.0045817457
185	0x3c50f5a8	0.0127538815
186	0x3c85c4d6	0.01632921
187	0xbd1fd1fe	-0.039018624
188	0xbc1254c4	-0.0089313425
189	0x3ccb87b6	0.024844985
190	0xbc8c1fa3	-0.01710493
191	0xbc1195f4	-0.008885849
192	0xbbab4ffa	-0.00522804
193	0xbcc4239d	-0.023942763
194	0x3d0331d9	0.03202996
195	0x3c854325	0.016267369
196	0x3aac2a60	0.0013135187
197	0x3cb3190a	0.021862525
198	0xbca2503e	-0.019813653
199	0x3c7756cc	0.015096378
200	0x3c66b354	0.014080841
201	0x3b912880	0.004429877
202	0xbc7db520	-0.015485078
203	0xbd17bfbf	-0.037048098
204	0x3b707870	0.003669288
205	0x3c36a2a4	0.011147175
206	0x3bcaa5a8	0.0061842985
207	0xbc0d1570	-0.008611068
208	0xbd2794f3	-0.040913533
209	0xbd0de358	-0.03464064
210	0x3d1964f7	0.037449803
211	0xbd1909a0	-0.037362695
212	0x3cdb3059	0.026756452
213	0xbcb03604	-0.021510132
214	0x3b213bed	0.002460237
215	0x3c807135	0.015678981
216	0xbc97b173	-0.018517232
217	0xbc52682c	-0.012842219
218	0x3cc1e726	0.02366979
219	0x3d0bd9c6	0.03414323
220	0xbd2f21d0	-0.042756855
221	0x3d219791	0.039451186
222	0xbc8ff7b4	-0.017574169
223	0xbccee454	-0.02525536
224	0xbd2107ea	-0.039314188
225	0xbd1e22cb	-0.0386074
226	0xbc092c74	-0.008372415
227	0xbd25e404	-0.040500656
228	0x3d116633	0.035497855
229	0x3ce760d3	0.028244412
230	0x3bf7caf8	0.0075620376
231	0xbba81c03	-0.0051302924
232	0x3cd824ba	0.0263847
233	0x3ce11b20	0.027478755
234	0x3cfe90ea	0.03107496
235	0x3c5f91e0	0.013645619
236	0xbc8d19c3	-0.017224198
237	0x3b864d94	0.0040986035
238	0x3bf1655f	0.0073668207
239	0x3d04d9da	0.032434322
240	0xba47e82d	-0.00076258444
241	0xbc1587a8	-0.009126581
242	0xba831fe6	-0.0010004013
243	0xbd0aa664	-0.03385009
244	0xbc6c2e90	-0.014415398
245	0xbd1ade9b	-0.03780995
246	0xbb811208	-0.003938917
247	0x3cbff76e	0.023433413
248	0x3c68c7e4	0.014207814
249	0xbb1ec250	-0.0024224706
250	0x3d18bdb1	0.03729028
251	0xbbe7ad98	-0.0070702545
252	0xbc9279fb	-0.01788043
253	0x3b560a80	0.0032660067
254	0xbca1f5f6	-0.019770604
255	0x3ce241c8	0.027619258

bottleneck.2.bias f4 [64]
0	0xbc54600d	-0.012962353
1	0x3c5b54b9	0.013386899
2	0x3c234cbc	0.009967025
3	0x3d4e4c1d	0.050365556
4	0x3c9b72fd	0.01897573
5	0xbcac9cb8	-0.021070823
6	0xbc7c4c8c	-0.01539911
7	0xbc81be1b	-0.01583772
8	0x3c6d6a38	0.014490657
9	0x3ca3180e	0.019908931
10	0x3cae1b62	0.021253292
11	0x3d1a65e0	0.03769481
12	0x3cf614b8	0.030039176
13	0xbc6acbd1	-0.01433082
14	0xbc54d682	-0.012990596
15	0xbd1e9e54	-0.038725212
16	0x3c871942	0.016491536
17	0xbcf4525f	-0.029824434
18	0x3d1d9363	0.038470637
19	0xbd0ef9a9	-0.034906063
20	0x3d43a65a	0.047766067
21	0x3cfacb62	0.030614559
22	0x3cd89568	0.02643843
23	0xbcd1de2a	-0.025618631
24	0x3d0c5d9c	0.03426896
25	0xbc3aec15	-0.011408825
26	0x3d3f6868	0.04673043
27	0x3cad4772	0.021152232
28	0x3cc666f0	0.024219006
29	0x3d5c155e	0.053731315
30	0x3d25d606	0.04048731
31	0x3c88a0dd	0.016678268
32	0xbd1a894b	-0.03772859
33	0x3b3d4ec3	0.0028886057
34	0xbcb4bf2a	-0.02206381
35	0xbbee68ff	-0.0072757
36	0x3bcc4712	0.006234058
37	0xbca26138	-0.019821748
38	0x3d24ae02	0.04020501
39	0x3c990607	0.018679632
40	0x3cd432a3	0.025903052
41	0x3cd80444	0.026369222
42	0x3cd17df5	0.025572756
43	0x3d12f9a6	0.035882615
44	0xbc15acac	-0.009135406
45	0xbb963fbb	-0.004585234
46	0x3cf81430	0.030283064
47	0xbc23e2b9	-0.010002785
48	0xbc8f94d6	-0.017527025
49	0xbc914ab1	-0.017735811
50	0xbcfaea60	-0.030629337
51	0x3d3f0845	0.046638746
52	0x3cd29273	0.025704598
53	0x3cf452b1	0.029824587
54	0x3c73c94c	0.014879536
55	0xbb9b2c60	-0.0047355145
56	0x3cda18e2	0.026623193
57	0x3cf0904e	0.029365685
58	0xbce1b8e9	-0.027553992
59	0xbcdf7ba3	-0.027280634
60	0xbd09a21c	-0.033601865
61	0x3c7da669	0.01548157
62	0x3c755f2d	0.014976305
63	0xbd2e408a	-0.042542018
